image-sharpening-kd/checkpoints/student_model_sharpening.pth (torch, 164850 bytes, 6 tensors)

layers.0.weight f4 [64, 3, 3, 3]
000000 e5 10 51 3d de 2f 09 be 4a 49 3b 3e ae a9 d0 3d
       0.051041503 -0.13397166 0.18289676 0.10188614
000010 37 f8 1f 3e 5c c4 06 3e e5 d4 c9 3d 19 f1 42 be
       0.1562203 0.13160843 0.098550595 -0.19037284
000020 cf d5 fa bc 8f 67 0a 3e 0f 27 18 bd 1f 7c 08 3e
       -0.03061953 0.13516067 -0.037146624 0.13328598
000030 53 42 9e bd a1 fa 10 3e c8 8c d3 3d fc 18 a4 3d
       -0.07727494 0.14158107 0.10329586 0.08012578
000040 ca cb d5 bd 19 31 9c 3d 2a 54 e3 bd 77 f4 21 bd
       -0.1043926 0.07626552 -0.111000374 -0.03953978
000050 f9 c3 20 be a7 90 3f 3e e2 43 7c bd c6 9b 27 3e
       -0.15699758 0.18707524 -0.061588176 0.16368017
000060 01 ff f8 bd d5 a8 ce 3c bb c7 94 3d a9 61 c1 3c
       -0.12158013 0.02522699 0.07264658 0.023606138
000070 0d 14 2c 3e 52 f2 12 be 3a e0 05 bd b7 96 b7 3b
       0.16804524 -0.1435025 -0.032684542 0.0056026834
000080 b2 60 c9 3d e6 dd 40 be 53 c5 f6 3c 72 52 3b 3e
       0.09832896 -0.18834648 0.030123388 0.18293169
000090 95 5b 0e 3e d4 da 17 be 2b 54 24 be 49 ba e2 3d
       0.13902123 -0.1482957 -0.16047733 0.11070687
0000a0 c1 ba 23 bd eb 72 33 3e ba dd 2d 3e 90 30 6f bd
       -0.039973024 0.17524306 0.16979113 -0.058395922
0000b0 75 b4 27 3e 5a 4a 83 bd 24 9c cc bd 65 d0 41 3e
       0.16377433 -0.06410666 -0.09990719 0.18927152
0000c0 59 7e 28 be 5d 11 24 3e 1e 0a 36 be 05 99 2d bd
       -0.16454448 0.16022249 -0.17777297 -0.04238226
0000d0 fd 82 c6 bc 36 6a d1 bd 88 81 84 bc c5 42 38 3e
       -0.024232382 -0.10225336 -0.016175047 0.1799422
0000e0 90 89 ae 3d 2b 25 b5 3c 97 17 fb bd 58 39 2f be
       0.08522332 0.02211245 -0.12260359 -0.17111719
0000f0 37 6a 26 be 4e 12 e7 3d ac 19 51 bd 8d 9c a7 3d
       -0.16251455 0.11282788 -0.051049873 0.081841566
000100 47 ec b5 3c 09 72 f5 bd 28 10 09 3e 8a 2c be 3d
       0.022207392 -0.11984641 0.1338507 0.09285839
000110 6a e8 bc bc 8b 56 1f 3d e1 e9 f4 3c 1f 1c 2d 3e
       -0.023060042 0.038900893 0.029896678 0.16905259
000120 f5 4d 1a be e2 e7 84 bd 83 7e 35 3d aa 6d 5f 3d
       -0.15068801 -0.06489541 0.044310104 0.054547943
000130 c7 40 20 be 0f c6 e5 bc 08 4a 39 3e 2d d3 d1 3c
       -0.1564971 -0.028048543 0.18094647 0.025613392
000140 b6 7a 45 bd 81 75 49 3d 65 cc dd bd e9 9e 39 3e
       -0.04821273 0.049184326 -0.10830001 0.18127026
000150 b0 da 8d 39 4a 05 24 3e d3 50 f3 3d a6 6c 11 3e
       0.0002705655 0.16017643 0.1188065 0.14201602
000160 de a3 f4 bd bc 2c 0b bd ad ec 06 3c 95 2d 3a bd
       -0.11945318 -0.03397821 0.008235139 -0.045453627
000170 75 ff 30 be a7 46 3f 3e 81 cd 3b 3e ec a2 66 bd
       -0.17284949 0.18679295 0.18340112 -0.05630772
000180 44 2c 7f 3c 89 d1 a3 3c 8c 0b cd 3d 03 e3 22 3e
       0.015574519 0.019997375 0.10011968 0.1590691
000190 55 87 6c bd 40 b2 14 be f5 10 40 be 76 14 27 3e
       -0.05774625 -0.14521122 -0.18756469 0.16316399
0001a0 68 c0 02 be b2 b6 f2 3d 4f 97 38 bd 09 cc 74 3d
       -0.1276871 0.118512526 -0.045066174 0.059764896
0001b0 e8 ea 46 3e a1 ba 3e 3e 6c 07 41 be a0 75 16 bc
       0.19425547 0.18625881 -0.18850487 -0.009183317
0001c0 ee c8 45 3e fc 6b 35 be 05 62 22 be 8f ea 01 3e
       0.1931493 -0.17716974 -0.15857704 0.12687133
0001d0 85 02 13 be 02 50 50 bd a6 3d 19 3d 0f 8d 00 bc
       -0.1435643 -0.05085755 0.03741231 -0.007846131
0001e0 28 a6 f5 3c 5a 65 33 3c 8c 57 fc 3d a5 7d 1e 3e
       0.029986456 0.010949457 0.12321386 0.15477617
0001f0 6f 14 98 bb 6b d7 ff 3d 98 6d 7f bc d6 70 e2 bd
       -0.0046411077 0.124922596 -0.015590094 -0.11056678
000200 c1 91 c4 bd e0 9a 06 3e 86 14 02 3c 69 b0 cf bd
       -0.09598113 0.13145018 0.0079394635 -0.101410694
000210 de 47 01 be 7f ef c0 bc 66 2c b0 bd 99 db f1 3c
       -0.12625071 -0.0235517 -0.08602218 0.029523658
000220 be a7 5f 3b f0 ae 52 bc d7 ee ba 3d 2e f5 8c bd
       0.0034127082 -0.012859091 0.09127586 -0.06882702
000230 ad 02 7a bd c8 9f b1 3d 03 a8 ff bd 58 bf 1b be
       -0.061037708 0.08673054 -0.124832176 -0.1520971
000240 8a b8 30 bd d6 d7 36 3c 59 75 f3 3d 27 1e 25 be
       -0.04314474 0.011159858 0.11887617 -0.16124783
000250 c7 71 f5 3d ec cc 07 3e 9e be 28 be af f3 0c 3d
       0.11984592 0.13261765 -0.16478965 0.034412082
000260 ac fc bb bd 6e e2 c8 3d 51 3c 0e 3e 88 7c 93 bc
       -0.09179053 0.09808813 0.13890196 -0.018003717
000270 67 6a 84 3d b2 fd 3e 3e 39 d7 86 3d de d7 f7 bd
       0.06465607 0.18651465 0.06584019 -0.1210172
000280 9c 79 97 3d 92 8d fe bd 13 e2 9b bd 94 69 0d 3d
       0.07396242 -0.12429346 -0.076114796 0.034524515
000290 7c 4f a0 3d 2f d9 98 bd 0d 34 48 3e 8c 26 fe 3d
       0.078276604 -0.074632995 0.19551106 0.12409696
0002a0 cd 18 f4 3c a7 a9 ab 3d d9 42 9c bd aa ed 12 be
       0.029796982 0.08381968 -0.07629938 -0.14348474
0002b0 2f 17 06 3d ad a3 f5 bd 19 1b a5 bd 44 7b 42 3e
       0.032736953 -0.11994109 -0.08061809 0.18992335
0002c0 2b d5 61 bc d2 b2 f6 bd 7f 88 a5 bd 6e da 03 3e
       -0.013783733 -0.12045826 -0.08082675 0.12876293
0002d0 a4 f5 1b bd c8 bf 28 3e c8 03 09 3d 38 e8 1a 3d
       -0.038076058 0.16479409 0.03345087 0.037819117
0002e0 ee 42 4f 3e 2b c6 f3 bd e5 d0 de 3c b5 a3 00 be
       0.20240375 -0.11903032 0.027199218 -0.1256245
0002f0 8d 9f 96 bd dc 05 a3 bb 1a 41 24 3e 2c 0c c2 3b
       -0.07354651 -0.0049750637 0.1604046 0.005921861
000300 85 49 13 3e e9 8c ae bd 13 e2 b0 bd a1 79 c5 3c
       0.14383514 -0.0852297 -0.0863687 0.024105849
000310 bd 0c b6 3c 93 19 dd 3d 13 64 1c bd 05 72 97 bd
       0.022222871 0.107958935 -0.038181376 -0.073947944
000320 2f 9b 0e be 21 b8 e4 3b 37 83 01 be 90 ac d0 bd
       -0.13926385 0.0069799577 -0.1264771 -0.10189164
000330 a3 01 e9 3c df 05 da 3d f4 7d f3 3c a7 41 cf bd
       0.028443163 0.10645651 0.029723145 -0.10119944
000340 ad 77 a0 bd f7 15 e7 bd 53 f5 b4 3d 62 1c 11 3e
       -0.07835326 -0.11283486 0.088358544 0.14170983
000350 ec 42 3b 3d 13 9d 2d 3e 24 8a 1c bd 3b 5d 27 be
       0.04571812 0.1695445 -0.03821768 -0.16344158
000360 2d a4 22 3e 00 aa 38 3e 78 b8 21 bd 58 60 36 3d
       0.1588294 0.180336 -0.039482564 0.044525474
000370 18 27 a8 3d 81 7a 21 3e fa 9b 0f 3e 57 8f 28 3e
       0.082105815 0.15769388 0.14024344 0.1646093
000380 89 31 d5 bd 15 ef 12 be 2f e4 15 3e 23 9e 31 bd
       -0.10409839 -0.14349015 0.14637826 -0.0433637
000390 e2 8d 11 3e 42 7c e3 3c ff da 1a be a0 58 7e bc
       0.1421428 0.027769212 -0.15122603 -0.0155240595
0003a0 9b 9f 1e 3e 5e 21 e0 3b 9a a6 1a 3d 23 fb b4 3d
       0.15490572 0.006839915 0.03775654 0.08836963
0003b0 fd ea d6 3d 52 30 31 be 78 bf ef bd 92 2a d4 3d
       0.10494039 -0.17303589 -0.11706442 0.10359682
0003c0 b1 9d 1c be 73 df 31 3e 01 d7 83 3c b7 ea c6 3c
       -0.1529453 0.17370395 0.016093733 0.024281843
0003d0 7c 08 56 bd 19 90 14 3e 84 e1 cc 3d 2d 33 cb 3d
       -0.052254185 0.14508094 0.10003951 0.099218704
0003e0 c3 07 e1 bd bc 9f f2 bc 6d a7 0b 3e 5d 3a 5f bc
       -0.109878086 -0.029617183 0.13638087 -0.013624755
0003f0 67 60 b3 3d c4 0a 31 be 22 a5 af bc 79 ad 66 3c
       0.08758622 -0.17289263 -0.021441046 0.014079445

layers.0.bias f4 [64]
000000 0a a6 36 3c 7f c5 02 be a3 e9 20 3e 1a 0d b7 bc
       0.011147985 -0.12770651 0.15714125 -0.022345114
000010 07 c5 a5 bd 9a 1c f7 bd 69 31 80 bd 39 15 85 3d
       -0.080942206 -0.12066002 -0.06259424 0.064981885
000020 c5 dc 6a bb 83 77 61 3b a4 4e 39 3e 04 dd 3f be
       -0.0035837155 0.003440351 0.18096405 -0.18736655
000030 ee 12 14 3e 3d fb c9 3d 54 97 d7 3d 64 bd 85 3d
       0.14460346 0.09862373 0.105269104 0.06530264
000040 7f d3 2f be 53 09 1f 3e 90 6d 3b 3e 49 80 2b bc
       -0.17170523 0.155309 0.18303514 -0.010467597
000050 a4 56 21 bd 0f c4 b8 bd a8 30 58 3d 8e 3d 42 3d
       -0.039389268 -0.0902177 0.052780777 0.047421984
000060 42 f8 3c 3d a8 22 ee 3b 4d d9 53 3d c6 44 26 be
       0.046135195 0.007267315 0.051720906 -0.16237172
000070 2d 01 0f be 9d 6a 24 3e 92 7a 00 3c 9a cd 39 3e
       -0.13965292 0.16056295 0.007841723 0.18144837
000080 a2 a7 dc bd 68 26 16 be ba 05 40 3e b7 7e 0d be
       -0.10774161 -0.14663088 0.18752185 -0.13817869
000090 57 01 3e be 61 12 05 be 75 e0 88 3b cb 14 0d be
       -0.18555199 -0.12995292 0.004177148 -0.13777463
0000a0 6d 2f f9 3d 40 3f 33 3e ff ec ef bc 5b 4d 77 bd
       0.12167249 0.17504597 -0.029287813 -0.060376506
0000b0 38 66 de bd c8 79 2a bd 38 7f 81 3c 86 5c fa 3d
       -0.108593404 -0.041620046 0.015807733 0.12224679
0000c0 5a 3a 22 3e 95 fa ed bd 06 d7 cf 3d 0b 16 9e 3d
       0.15842572 -0.1162006 0.10148434 0.07719048
0000d0 ad 60 14 be ac 4e 7e 3b 7e 10 44 3e a4 48 0e 3e
       -0.14490004 0.0038804216 0.19146916 0.13894898
0000e0 53 e0 80 3d 2c bc 62 3c 39 21 b0 3c e4 4c 16 be
       0.062927864 0.013838809 0.021500217 -0.14677769
0000f0 51 78 98 3c a4 2b 33 be aa ed 5b 3d 39 93 2e 3e
       0.018612059 -0.17497116 0.05369345 0.17048348

layers.2.weight f4 [64, 64, 3, 3]
000000 95 8f 11 3d 26 e2 ba bc 6a 26 a3 3a 3d 78 90 3a
       0.03553732 -0.022812914 0.0012447361 0.0011022162
000010 84 da fe bc f5 a9 f4 ba 0e fa 06 bd 7d 99 31 3d
       -0.031110056 -0.0018666374 -0.032953314 0.04335927
000020 0b ea 0a 3d 89 2c 08 3c 79 fa 46 bc 45 49 1d bc
       0.033914607 0.008311399 -0.012144678 -0.009599988
000030 b5 af a0 bc e6 91 b7 bb 26 a0 e4 3c c0 88 b5 3b
       -0.019615034 -0.0056021092 0.027908396 0.0055399835
000040 0c bd ed 3c 65 c3 1a 3c 90 e7 1a bd 93 77 dd bc
       0.029020809 0.009446 -0.03781849 -0.027034556
000050 f6 d9 75 3a ad 5c 98 bc da bc 27 3d 70 18 8e 3a
       0.0009378487 -0.018598879 0.040951587 0.0010841023
000060 77 ff 57 3c 30 f5 6e bb f9 11 02 bd 47 3a f4 3c
       0.013183466 -0.003646206 -0.03175542 0.029812945
000070 a6 de be 3c 4e b1 2c 3d e9 27 27 bd d7 9a ed bc
       0.023299526 0.04216128 -0.040809546 -0.029004497
000080 a6 67 a1 3c 4b 16 18 bd 2b 05 1e 3b 83 b9 22 3c
       0.019702744 -0.037130635 0.0024111967 0.009931925
000090 5e 5b 21 bd f9 48 4d bd 03 d8 37 bc 91 1e 13 bd
       -0.039393775 -0.05011842 -0.011220935 -0.035917822
0000a0 e2 53 5b 3c 3f fb 40 bc 84 af 4d bc 6a af 45 bc
       0.013386698 -0.011778652 -0.012554053 -0.012065748
0000b0 9d f7 3a bc d4 4c bf bb f8 9e 1c 3d c7 6f b5 3c
       -0.011411575 -0.005838016 0.038237542 0.022148026
0000c0 bb b9 7f bd 6a c0 55 bd 26 5d 91 bc d3 2e 12 3d
       -0.062432986 -0.052185453 -0.017744612 0.035689186
0000d0 8f ec 7c 3c 3f b3 3f 3d 8d 42 83 3c ad eb 6b 3c
       0.015437259 0.0468018 0.016022945 0.014399451
0000e0 e0 34 27 3d 64 92 4c 3c 84 72 c7 3b 03 25 bd ba
       0.04082191 0.012486074 0.0060866494 -0.0014430586
0000f0 fb 4a 8b bb b6 5f 49 bc e8 42 16 3c 91 c0 cf bc
       -0.0042508817 -0.012290886 0.009171225 -0.025360378
000100 e3 cf 2f 3c ff 23 85 bc c9 a8 14 bc 3a b7 c2 bc
       0.010730716 -0.016252516 -0.009073445 -0.02376901
000110 be 24 9b bb e5 6b 13 3d 9d 9f 0b 3d 25 d1 25 3d
       -0.0047346046 0.035991568 0.034087766 0.04048266
000120 7b 4a 6f 3c 89 11 31 3c 87 a7 29 3d 8b 31 04 bd
       0.01460516 0.010807403 0.041419532 -0.03227381
000130 c5 8b fa bb 57 06 2f 3d 74 39 8a 3a 1b 38 ab 3c
       -0.0076460564 0.042730656 0.0010545687 0.020900777
000140 37 cd d3 3a 92 16 46 3c 5f c6 0c 3d 36 e7 77 3c
       0.0016159181 0.012090342 0.03436887 0.015130809
000150 3e 1b 1a 3d 1c 7e e1 3c fb 74 ff bc 39 ca 8e bc
       0.037623636 0.027525954 -0.03118371 -0.017430412
000160 1c 3d 2d 3d ce 91 2c bc 12 62 c2 3c b3 47 07 bd
       0.042294607 -0.010532809 0.023728404 -0.033027362
000170 72 49 06 bc ce 3d 16 bd ca 2d bf 3b 81 37 16 bd
       -0.008196222 -0.036680035 0.005834316 -0.036674026
000180 e6 4e 8d bc fa 45 2c 3d 95 8c 93 bc 97 26 72 bc
       -0.017249536 0.042058922 -0.01801137 -0.014779708
000190 65 ce 5a 3c ea d5 d7 3c f8 fb ab 3c 72 c5 d4 bc
       0.013354872 0.02634712 0.020994172 -0.025973056
0001a0 83 2d 33 3d 53 e9 00 bc d5 72 60 3c 8e 80 f4 3c
       0.043744575 -0.007868129 0.013699253 0.029846456
0001b0 87 b7 8d bc af 5d 09 bd 6b f4 0f bd 74 7b d0 3c
       -0.017299427 -0.03353661 -0.035145205 0.025449492
0001c0 43 90 c5 bb 77 d9 e6 bc 21 85 82 3c 3e 4e 56 bc
       -0.00602916 -0.028179867 0.015932621 -0.013080178
0001d0 8c d0 17 bc 6f bb 11 3c 9c 06 34 3c 94 75 31 3d
       -0.00926603 0.008894785 0.010987904 0.043325022
0001e0 4a 43 5b bc b1 5f b3 bc 97 d2 92 bc 19 61 aa 3c
       -0.013382742 -0.021896215 -0.017922683 0.020798253
0001f0 33 6e 11 3d fd f3 c6 bc 6c ec 04 3d f7 a8 31 ba
       0.035505485 -0.024286265 0.032452032 -0.0006777192
000200 d6 46 94 3c f6 0d 08 3d a3 54 fe 3c fe e8 f9 3b
       0.018100183 0.03321644 0.031046217 0.007626652
000210 4c b8 92 bc 24 36 74 3c 0f 0a e0 bc b0 1a 27 bc
       -0.017910145 0.014905486 -0.027348546 -0.010199234
000220 d0 f8 14 3d 8e 68 a3 3c 48 06 d6 bc 3d 4e 08 3d
       0.0363701 0.019947316 -0.026126042 0.03327774
000230 50 36 db 3c 3b 55 2f 3c 3f d8 04 bd b2 f3 b4 3c
       0.026759297 0.010701473 -0.03243279 0.02208886
000240 d3 41 1a 3d 15 42 7c 3c 38 cc 98 bc 49 51 70 3c
       0.03766043 0.015396615 -0.018652067 0.014667817
000250 d6 4b 28 bd 69 f6 bd bb 96 2b fb bc e6 21 13 3d
       -0.041087948 -0.0057971966 -0.030660432 0.035921
000260 95 c3 1e bc 74 24 b8 bc fe 4c bb 3b 67 93 ea ba
       -0.009690185 -0.02247832 0.0057159653 -0.0017896713
000270 68 3d cd bb 77 41 a7 3c ee 5a fb 3c 52 f1 f4 bc
       -0.0062634237 0.020416958 0.030683007 -0.029900227
000280 23 14 00 bc 5b 9f f8 3c 20 87 1f bd 6a f6 de bc
       -0.007817301 0.030349424 -0.038947225 -0.027217109
000290 b7 21 b3 bc 1b cb b7 3c 43 2e cb 3c 6f f5 c6 3c
       -0.021866662 0.022435715 0.024802333 0.024286954
0002a0 90 01 e3 bb e7 d1 db bc 94 7e a5 3b ab 02 f1 bc
       -0.0069276765 -0.026833488 0.0050504897 -0.029420217
0002b0 4a a8 8b bc 81 4f 36 bb 0d 07 c9 bc 10 2f ff 3b
       -0.01704802 -0.0027818384 -0.024539495 0.0077875927
0002c0 c2 e9 5e 3c ff d2 24 3d 0e 3b b5 3c 79 30 23 3c
       0.013605537 0.040240284 0.022122886 0.009960287
0002d0 1b 27 81 bc 8c f7 86 3c ab dc f6 39 2c 6f ec 3c
       -0.015765717 0.016475461 0.00047085187 0.028861605
0002e0 dc 52 ac bc a6 1e 87 bc c0 10 8b 3b 6b dc 13 bd
       -0.021035604 -0.016494107 0.00424394 -0.03609888
0002f0 c8 3d b0 3c 0c 4e 0c 3d c8 65 f3 bc b1 93 ce 3b
       0.021513835 0.03425412 -0.029711619 0.0063042273
000300 be 35 02 3d 8a 6b b0 bc 82 92 0a 3d e7 4d 1a bd
       0.031789534 -0.021535654 0.033831127 -0.03767195
000310 ec b5 b2 bc c8 63 0a bc cc 52 cc bc ca bf ae bb
       -0.021815263 -0.008446641 -0.024941824 -0.0053329216
000320 ec cc db 3c 15 be c5 ba ab ed 9c bc b6 8d 48 3d
       0.026831113 -0.0015086556 -0.019156298 0.04896327
000330 42 41 b8 bc fb 26 05 3d b8 82 9f bc 90 cf 77 3c
       -0.022492055 0.032507878 -0.019471511 0.01512517
000340 a5 41 aa 3b 7b a4 d9 3c 16 91 af bc fe f0 3f 3d
       0.0051958137 0.026567688 -0.021431487 0.046860687
000350 c2 c4 ba 3a 30 ab 0e 3c 5a 83 cf 3c 79 58 fb 3c
       0.0014249312 0.0087078065 0.025331188 0.030681835
000360 f2 2e c0 bc 90 4c 09 bd 46 2d 39 3d 07 b3 ee 3c
       -0.023459885 -0.03352028 0.04520919 0.029138101
000370 7b 11 4a bc 99 e7 04 3a 50 cc f2 3b e2 90 9a ba
       -0.012333269 0.0005069911 0.00740961 -0.0011792446
000380 5c 7f 26 bd b2 06 a1 3c 98 2e bc 3c dc 48 7a bb
       -0.040648803 0.019656513 0.022971436 -0.00381904
000390 0a 5e 85 bc 65 be 9a bc 4c 6e ef bb 03 ee 9a 3b
       -0.016280193 -0.018889615 -0.0073068496 0.0047280802
0003a0 d8 16 f0 bc 53 bd 09 bd 04 3f 07 3d f7 b9 39 3d
       -0.029307768 -0.03362782 0.03301908 0.045343366
0003b0 7c f5 18 3b 9d bb 4a 3c f3 86 4d b8 7b 13 f5 bc
       0.002333968 0.012373832 -4.900149e-05 -0.029916516
0003c0 0d e0 0c 3d ec 9a 06 3c 67 1c cb 39 8f 5f e3 bc
       0.03439336 0.008215647 0.0003874034 -0.027755527
0003d0 75 39 3d 3c c6 15 24 3d df 9d f6 bb 94 97 11 3b
       0.011549343 0.040059827 -0.007526144 0.0022215592
0003e0 f5 13 9d bc 39 4a 7d 3c ba 20 cc bc e2 2d 2d 3c
       -0.019174555 0.015459591 -0.024917949 0.010570021
0003f0 42 8d f6 3c cd 76 ef 3c 16 c4 cb 3c ea 03 83 bc
       0.030096654 0.029231453 0.024873774 -0.015993077

layers.2.bias f4 [64]
000000 11 bd 20 3d 75 19 11 bd 95 84 08 3d 62 17 ec bc
       0.039242808 -0.03542467 0.033329565 -0.028819744
000010 cb 99 0b bd 66 6e f8 3c d6 ac e8 3b 61 92 14 3d
       -0.034082215 0.03032608 0.007100682 0.03627241
000020 5c c0 88 bc 96 78 ef 3c d1 a7 29 3d e3 01 19 3d
       -0.016693287 0.029232305 0.041419808 0.037355315
000030 5b d6 7e bc 31 9f cd 3c 4f 96 2a bc 6c df e0 bc
       -0.015554036 0.025100322 -0.010411813 -0.027450286
000040 a2 4c b4 3b 2a f4 ab 3c 50 c7 b4 bc 5e 34 f6 3a
       0.0055022994 0.02099045 -0.022067696 0.0018783917
000050 a2 9f 86 bc 63 d0 0d bd 14 0e 11 bd e4 ac 85 bc
       -0.01643354 -0.03462256 -0.035413817 -0.016317792
000060 43 a8 1f bd 3a ec bc 3c 5b 4d f1 bb 02 2a fe bb
       -0.038978826 0.02306186 -0.007363958 -0.0077564726
000070 52 5a 07 3c d0 2b 60 bc 50 06 db bc f3 87 ef bc
       0.00826128 -0.013682321 -0.026736408 -0.02923963
000080 52 41 1a bd 16 10 01 3d cb 2a f7 bc 52 bb 66 3b
       -0.03765995 0.03150948 -0.030171772 0.0035206866
000090 49 c4 25 3c a3 1d 2d 3d 22 80 ee 3c 9a ad 0a 3d
       0.010117599 0.042264592 0.029113833 0.033856966
0000a0 c1 ab 3e 3d 79 3e 03 39 a8 77 c9 bc 7e da b1 3c
       0.046550516 0.00012516406 -0.02459319 0.02171063
0000b0 29 38 07 3d d2 80 69 3c cb 0d 98 bb 94 3e 24 bd
       0.033012543 0.014251905 -0.004640316 -0.04009874
0000c0 96 6a d1 3c e5 0c b5 bc 26 a4 77 bc 32 31 c0 bc
       0.02556352 -0.022100875 -0.01511482 -0.023460958
0000d0 3a 15 7a 38 c0 dc 04 3d f6 a4 a1 3c 7f 5f 01 bd
       5.9624414e-05 0.032437086 0.01973198 -0.031585213
0000e0 72 25 25 3d 6e 74 94 3b c9 b5 fc 3c 45 68 1b 3d
       0.040318914 0.004530481 0.0308484 0.037941236
0000f0 0f 05 10 bd e0 b1 08 bc 1b 4e 30 bc fb 51 d1 3c
       -0.035161074 -0.00834319 -0.010760809 0.025551787

layers.4.weight f4 [3, 64, 3, 3]
000000 ef 13 61 3c 75 4b f0 3c e8 5a da 3c 8f ca f9 ba
       0.013737663 0.029332856 0.026654676 -0.001905756
000010 70 4c a4 bc be fc 9e bc 20 19 0b 3d 84 0f 8a 3b
       -0.02005598 -0.019407626 0.033959508 0.0042132754
000020 0c 94 cc bc ff a8 e7 3c ad 36 da 3b 30 2e 08 3a
       -0.024972938 0.028278826 0.00665935 0.0005194871
000030 77 16 43 bd eb 48 0b ba 8a d3 e9 ba b5 07 b2 bc
       -0.047628846 -0.0005313295 -0.0017839533 -0.02173219
000040 f8 b8 eb 3c 87 b3 e6 bc 5c a2 61 bb f8 6d 49 bc
       0.028774723 -0.028161777 -0.003442905 -0.012294285
000050 2c fe 0b bd 24 15 16 3d 0a f5 8e ba 1c 98 0b 3d
       -0.034177944 0.036641255 -0.0010906768 0.03408061
000060 bb b4 ae 3c be be be bc 2d 54 4e ba 9a 4c da bc
       0.021326413 -0.023284312 -0.00078708195 -0.026647855
000070 95 ae 95 bb 61 d8 f9 bc 75 cf d3 bc 31 99 38 3c
       -0.004567931 -0.030498685 -0.02585576 0.011266992
000080 8c a9 25 3d d4 07 97 bc 3d e4 f7 ba 4a 9f 73 3c
       0.040444896 -0.01843635 -0.0018912625 0.01486952
000090 0a 3b 7f 3c a5 e4 a7 bc 73 b9 12 3d 6f 79 1d bd
       0.015578041 -0.020494768 0.03582139 -0.038445886
0000a0 ef e5 f3 bc 1b bd 5c 38 8f 0f 9c bb ff 30 36 3c
       -0.029772727 5.2628206e-05 -0.004762597 0.01112008
0000b0 4e bb e0 bc 44 8b 1b 3c 72 80 a9 3c a0 ed 0b bd
       -0.027433064 0.009493653 0.02069113 -0.034162164
0000c0 cf 6b 62 3c 33 a9 eb bc ea 74 61 bb b5 16 17 bc
       0.013819649 -0.028767204 -0.0034401962 -0.009221722
0000d0 fb ed 9d 3c 12 9a 24 3c b7 7d 6a bb 60 dc cc 3c
       0.019278517 0.010046499 -0.0035780498 0.025007427
0000e0 81 90 ca 3c 9b ff ef bc ae cb 4d 3c ea 8b 06 bd
       0.024727108 -0.029296687 0.012560768 -0.032848276
0000f0 6c e9 b8 bb 2e a9 49 3c a4 a3 e9 bc 37 6a 9b bc
       -0.0056430604 0.012308402 -0.028520413 -0.018971546
000100 50 a2 d8 bc b5 3e dc bc 66 a1 75 bc 1a 8f 07 3d
       -0.026444584 -0.02688537 -0.014992094 0.033095457
000110 b4 2c 8e 3c 2e 8c 02 bd d7 2a ec bc 67 19 0b bd
       0.0173553 -0.031871967 -0.028829021 -0.033959772
000120 58 42 05 3d 28 cd a6 bc 09 d8 09 bd d0 2a fc bb
       0.032533973 -0.020361498 -0.033653293 -0.0076955333
000130 09 08 aa bc 9c 99 02 3d ed e3 c0 3c 79 8d 02 3d
       -0.020755785 0.031884775 0.023546183 0.0318732
000140 fd 6a 64 3c 6e af 09 3c 06 2f cc bc 0d 6f b5 3c
       0.013941524 0.008403642 -0.024924766 0.02214768
000150 ba 84 fe 3a 32 99 d4 3b 70 28 b7 bb f6 b2 24 3d
       0.0019418218 0.006487989 -0.0055895373 0.040209733
000160 d9 35 00 3c 22 0c 34 3c 1f 7a 24 bd 20 62 ad 3c
       0.007825338 0.010989221 -0.040155526 0.021164954
000170 e3 6c 2f bc 31 54 12 3d 25 dd 26 bc a2 20 2b 3d
       -0.010707113 0.035724822 -0.010184561 0.041779168
000180 ee c4 f1 bb 0d 20 1d bd af 83 13 bd a4 43 c0 3c
       -0.007378212 -0.038360644 -0.036014255 0.023469754
000190 38 49 4a 3c 8e d6 13 3d 9a 53 01 3d a7 2e 35 3d
       0.012346558 0.036093287 0.03157387 0.044233944
0001a0 f7 fc 3b 3c c3 0b 17 bd cd 09 ae bc d7 15 2c 3d
       0.011473886 -0.03687645 -0.021244908 0.042013016
0001b0 2f 5d 33 3c 30 7a 09 3d 1c 0c 2d 3d 82 e9 b6 3c
       0.01094751 0.033563793 0.042247877 0.022328142
0001c0 ef 26 cf 3c d4 e7 08 bd 16 4a 05 3d 0b 66 b5 bc
       0.02528712 -0.033424214 0.032541357 -0.022143384
0001d0 96 47 05 3d ef 66 b5 bc 43 9a 49 3c 48 73 41 bb
       0.032538973 -0.02214381 0.012304845 -0.0029518176
0001e0 74 cb 3c 3c 5b b5 c0 3c bd db 84 bc a1 c8 20 bc
       0.011523116 0.023523977 -0.01621806 -0.009813459
0001f0 ac fc f2 3c 22 2b b2 bb ca 46 ba bc aa 4c 6f bc
       0.029661499 -0.0054372707 -0.022738833 -0.0146056805
000200 84 2c 0b 3d 66 ca df 3c d3 13 b7 3b 15 a1 30 3c
       0.033978 0.02731819 0.00558708 0.010780592
000210 f8 5e ad 3b 7e 1d f5 bb 47 7b a0 bb d7 e8 54 3b
       0.005290862 -0.0074803224 -0.0048975083 0.0032487416
000220 4f 69 7c bc 42 8d 12 3c 5b 5b ed bb 8e e2 b3 3c
       -0.015405967 0.008944811 -0.0072435564 0.021958616
000230 86 50 10 bd f5 27 f7 bc 6e 8e 0c 3c 36 bf 12 3c
       -0.035233043 -0.03017042 0.00857888 0.008956721
000240 04 95 3f bb 5f 3f 99 3c a1 13 e7 bc 90 8d 2e bd
       -0.0029233107 0.018706976 -0.028207602 -0.042615473
000250 c5 36 ee bb 2e a4 02 3c 74 54 c4 bb e9 96 15 bd
       -0.0072697126 0.007973714 -0.005991513 -0.036520872
000260 72 0d 4a bc c9 e0 10 3d 34 91 0c 3b 68 c6 aa bc
       -0.012332307 0.03537062 0.0021448852 -0.02084656
000270 1f 36 30 3c 69 dc e9 bc 62 57 03 bc 79 1d fa 3c
       0.010755091 -0.028547483 -0.008016439 0.030531632
000280 14 13 ec 3c 99 24 d9 bb 2e be fe bc 49 21 0f bd
       0.02881769 -0.0066266772 -0.031096544 -0.034943853
000290 12 3d d5 3c 0a f4 23 3d 0e 27 d7 bb a1 09 01 3d
       0.026030097 0.040027656 -0.006565935 0.031503323
0002a0 8c 60 bd 3c 56 bf 56 3d 89 c8 b6 3c 91 8a 4c 3b
       0.023117326 0.052428566 0.02231242 0.0031210522
0002b0 e7 13 06 bd ad 8e 48 bc 2f 93 01 bd 59 9b e0 bc
       -0.032733824 -0.012241048 -0.031634506 -0.027417826
0002c0 27 2b ca 3c f0 69 5f bb f4 bb 92 ba 73 da d0 3c
       0.02467878 -0.0034090243 -0.001119493 0.02549479
0002d0 59 a2 81 3b f4 86 4b bc 79 e2 98 3a 0d 32 02 3d
       0.003956121 -0.012422312 0.0011664174 0.031786013
0002e0 07 4b d0 3c 13 16 f8 3c f4 af fe 3c 4b 42 39 3d
       0.0254264 0.030283963 0.03108976 0.045229238
0002f0 16 de ca 3b 8b c7 70 bc a1 f4 6a bc 75 9d 16 3c
       0.0061910255 -0.014696012 -0.014340551 0.009192814
000300 32 4b ea 3c a6 a0 28 3d 68 5b 97 3c cf af d0 bb
       0.028600309 0.04116883 0.018476203 -0.0063686143
000310 22 dd 44 bc 47 9f 9e bc 47 a4 5d bb c4 de 39 3c
       -0.012015613 -0.019363059 -0.003381984 0.011344615
000320 79 ae 01 3d 78 47 06 bd 29 98 1e bd 7c e1 10 3d
       0.03166053 -0.032783 -0.03871933 0.03537129
000330 4a bc d4 bc 15 a6 ec 3c da 02 99 3c ad 1e 99 bb
       -0.02596869 0.028887788 0.018678118 -0.0046728463
000340 70 a9 88 bc 39 e1 00 bd 39 39 9f 3c f4 49 c3 3c
       -0.016682357 -0.03146479 0.019436466 0.023838975
000350 7e 47 e8 3c 53 2f 02 bd 73 ce d9 bc 3b 30 89 bc
       0.028354403 -0.031783413 -0.0265877 -0.01674663
000360 4f 6d db bc ea e5 3f 3c 33 19 05 3c 2b 78 26 39
       -0.02678552 0.011712531 0.008123684 0.0001587576
000370 dd 4a 9c 3c 4c f4 0b 3b c3 b2 d3 bc 7b ab e6 3c
       0.019078666 0.002135533 -0.025842076 0.02815794
000380 0e e6 05 3c 99 6a df bc a6 fb 07 3c 87 1b 24 3d
       0.008172525 -0.02727251 0.008299744 0.040065315
000390 81 73 c2 3c 3d b4 1c 3d 86 71 95 3a 4c fe 02 3d
       0.023736717 0.038257826 0.001140163 0.031980798
0003a0 e9 1d 5e bc 85 88 a4 3b 9b 6a 1a bd 9a 7b 91 bb
       -0.013556936 0.005021157 -0.037699323 -0.0044397833
0003b0 ba 10 23 3d 5a 23 08 bd 72 92 74 3b 4a 06 92 bc
       0.039810874 -0.03323684 0.0037318734 -0.017825264
0003c0 05 0c 3a 3c 0e 75 28 3d 76 fa 7e 3a 9c 0f 0c bd
       0.011355405 0.041127257 0.00097266526 -0.034194574
0003d0 7b 54 4c 3c 5c ca c3 3c 36 16 dc bc 57 97 6f bc
       0.012471314 0.023900203 -0.02686606 -0.014623485
0003e0 41 0a 92 bc 67 b8 d2 bb be 02 18 bd d2 62 0c ba
       -0.017827155 -0.006430674 -0.03711199 -0.00053553015
0003f0 85 e9 a7 bc b2 ba 66 3c 7d 43 f1 3c 48 3b 53 3b
       -0.020497093 0.014082598 0.029451126 0.003223138

layers.4.bias f4 [3]
000000 08 6d a2 3c 0d b2 e2 bc a8 d2 4b bc
       0.01982738 -0.027672792 -0.012440361
